HW4/Al_HW4/Tables/DQN.pt (torch, 9559 bytes, 6 tensors)

fc1.weight f4 [32, 4]
00000000: 963d ba3d 7361 30be c8bb 093c cd77 b83c
00000010: c4c0 1d3d 79df dabe d94f b2be 7112 3ebe
00000020: e33f 073e c0d2 d4be 4527 babd 4878 05be
00000030: 869f dc3e 1d6a 30be 272f 8ebf 4146 01bf
00000040: 1ee0 0f3f 8547 d9be 3e6b 45bf 6841 febe
00000050: 4f62 cf3d c54f d5be ae38 c1be ced3 99be
00000060: d599 dc3e 58d6 abbe 6bb8 17bf 990a ebbe
00000070: 444a 13be 04af bd3d 1474 d63f 0e48 da3e
00000080: a1f0 30be 5118 483e 48f6 a63f 1d5c e83e
00000090: aa20 8f3e ddfd 653e 35c2 64bf 3b09 23bc
000000a0: a33a 0dbf 7835 263d f670 8abe 7b80 903d
000000b0: a0c1 3cbd fd16 66be 8f09 adbe 71b5 923e
000000c0: 1af5 5dbf 2823 aabe 51b4 9d3f 33e4 aa3e
000000d0: 4add f53e 18c4 cebe 60b8 65bf a8ae 1dbf
000000e0: 4e38 403f b899 9f3d 5164 57bd 9c00 b93d
000000f0: 2f3a 183d f4ee afbe c581 91bf db03 d7be
00000100: bb2d d9bd 839f 9ebd 5a19 a0bf 046a 9fbe
00000110: 5b35 9d3e 5a95 1d3f 8007 cd3e 501f 91be
00000120: b4a8 5e3f daec c33e 0318 3dbe 521c 12be
00000130: bda9 ab3b efc5 d5bd c0de 10bf 7373 af3e
00000140: 26d9 183f a088 e2be c6fd ccbe 524b fcbd
00000150: 2a02 e7be e31a 173e 0478 863f eb3a 193f
00000160: b7df 32be 66c5 a4bd 4d06 0dbf 1184 98be
00000170: 4f3f 76be a879 a43d c258 28bf 9975 0cbb
00000180: 5262 66bf f342 2ebf 680a e139 dbfb 2d3d
00000190: 484f d93e 0c99 6cbe 2c95 1bbf a276 083f
000001a0: 3d64 81be dc61 13bf 9019 3dbf e3ba 1ebc
000001b0: 4f06 21be 9305 d83e ef4f 93be d4d7 d03d
000001c0: 6cf4 203f b344 d8be eed7 a2bf 2f36 a3be
000001d0: e59d 683f 1dd0 893e ce15 afbe 87e3 2ebc
000001e0: 4976 8cbf 9879 32bf 6d66 2c3f e627 bfbe
000001f0: 91c1 9cbd 8b0b bf3e e47f 1d3e 97df da3d
0.09093778 -0.17224674 0.008406587 0.022518063 0.038513914 -0.4274862 -0.34826544 -0.18561722
0.13207965 -0.4156704 -0.09089521 -0.13034165 0.43090457 -0.17227979 -1.110814 -0.50497824
0.5620135 -0.42437378 -0.77116764 -0.49659276 0.10126173 -0.41662422 -0.37738556 -0.30044407
0.43086115 -0.3356197 -0.59265774 -0.45906523 -0.14383799 0.09261897 1.6754174 0.42633098
-0.17279293 0.19540526 1.3043909 0.45382777 0.27954608 0.22460122 -0.89358836 -0.009950931
-0.551676 0.040578336 -0.27039307 0.07055756 -0.046083093 -0.22469707 -0.33796355 0.28654054
-0.8670212 -0.33229947 1.2320653 0.33377227 0.48020393 -0.40383983 -0.8973446 -0.6159463
0.75085914 0.077929914 -0.052585904 0.09033319 0.037164863 -0.34361994 -1.1367728 -0.4199513
-0.106044255 -0.07745268 -1.2507737 -0.3113557 0.3070477 0.6155602 0.40044785 -0.28344202
0.8697617 0.3826664 -0.18466191 -0.14268616 0.0052387402 -0.104381435 -0.5658989 0.34267768
0.5970634 -0.44244862 -0.40037364 -0.12319054 -0.4511884 0.1475635 1.0505376 0.59855527
-0.17468153 -0.08045463 -0.5508774 -0.2978826 -0.24047588 0.080310166 -0.65760434 -0.0021432398
-0.89993775 -0.68070906 0.00042923097 0.042476516 0.424433 -0.23105258 -0.60774493 0.5330602
-0.25271788 -0.57571197 -0.7386713 -0.009688112 -0.15725063 0.42191753 -0.28771922 0.10197416
0.6287296 -0.42239913 -1.2722147 -0.31877276 0.9086593 0.2691659 -0.34196323 -0.010674364
-1.0973598 -0.6971679 0.6734379 -0.37335128 -0.07654107 0.37313494 0.15380818 0.10687178

fc1.bias f4 [32]
00000000: b520 4f3f a5a2 1d3f 2906 3d3f ed8f d5be
00000010: d951 99be 1532 303f e592 9dbe fe0c 84be
00000020: c306 ac3e 38c8 543f d749 c5bd be13 443f
00000030: 0543 a7be eb9c 003d 08c6 f13e 0a3a 97bd
00000040: 44dd e5be e23b 573e e501 37be 870f 433f
00000050: f246 2d3f 7dec c13e 1648 6d3f e4f1 5b3f
00000060: 9ba0 77be 7fae ef3d d4f4 4b3f 236b 523f
00000070: cb10 593e 69e1 edbd be85 7dbd 6c95 343f
0.8090928 0.615763 0.73837525 -0.4171137 -0.29945257 0.6882642 -0.30776134 -0.25791162
0.3359891 0.8311801 -0.096332245 0.76592624 -0.3266832 0.03139965 0.47221398 -0.07384117
-0.44895375 0.21018937 -0.17871816 0.7619557 0.6768638 0.3787574 0.9268812 0.8591597
-0.2418236 0.11703204 0.79670453 0.8219473 0.21197812 -0.11615259 -0.061895125 0.705405

fc2.weight f4 [50, 32]
00000000: d8b6 d83e ca4c d53e c74c 8f3e 6342 7cbd
00000010: 7b9a 06bf 9e2a 8c3e 1a65 c5be 1a5d ddbe
00000020: 3978 a5be c724 c83e c337 923d 1aa3 ad3e
00000030: 66b9 33bc cf58 44be 4c88 2cbd 1cb9 8ebe
00000040: cebe 88be 8a0a c23d 2f88 693d 2594 d13d
00000050: dcd4 603e f3c7 143e c26f 123f 315d 053f
00000060: b2d1 90bc 503f 893e 5d6f 923e 6494 0b3f
00000070: 879b 39bf 3305 a2be 18b7 f4be 22cb ba3e
00000080: eab0 863e 4007 383e 1b00 af3e d0c8 21be
00000090: 5d1f 51bf d0b7 e33e 57aa 19bf 104f efbe
000000a0: e112 b4be df9c 6d3e 45a1 063e 7368 b43e
000000b0: bfb8 37be bce1 52be 6903 eabd 65a2 7cbe
000000c0: c364 97be d1e4 183e a674 9abc b91d 683e
000000d0: d455 b03e 1cd2 38be 80a2 193f c0df 143f
000000e0: 8dfa 8bbd 3b54 bf3d 53bd c03e e712 c13e
000000f0: 34b3 1fbf c57b 60be b22a e3be d352 283f
00000100: bdab 7d3c c204 fe3e 8eb1 373e a34e 033f
00000110: 43e3 0f3f 9d1e c53e 2701 393f 0607 61bf
00000120: 2999 63bf 4361 073e f753 88bd 84b5 d33e
00000130: 2171 70bf ac8d 63bf 1f15 513e 6329 b73e
00000140: 4d5b 323d c7b3 a03d 0d02 8e3d 419c b83d
00000150: d677 0e3f 1f5d 6abf 78e8 0a3e c029 8c3e
00000160: b6a7 02be 7726 763e cb6b db3e 0001 463e
00000170: 489b 7c3e f418 c53d e089 bebe 6100 da3d
00000180: 495e 3f3e 2f4d 623e ceef c63e ce27 74be
00000190: f463 33bf 1386 bc3e 97b3 f3be 1426 bdbe
000001a0: fec0 b1be 94af f13e f710 0a3e 7b03 943e
000001b0: 773a c5be 605e dbbe 40ec bb3c c2bb e0be
000001c0: 6c7a 85be d65a 3f3d 87d6 ea3c 3695 2d3d
000001d0: f229 093e 3726 3dbe 7ea3 193f 2095 813e
000001e0: 0b68 12be 74e5 72be d95f a93e 4b9c 1e3f
000001f0: e692 5dbf c0c1 0bbe 0f44 54bf 793e d43e
00000200: cd6a 8d3e ef4b 553e 8ae3 133e f8bd 28be
00000210: 5463 16bf c512 d73e ad6d e6be 2033 1fbf
00000220: c26b 84be 2df7 af3e 89a7 f13d 2195 333e
00000230: f178 84be 0e59 e6be 0059 1cbe 6ad5 02bf
00000240: a210 f0be 4476 e63c c2d3 243d ebac c9ba
00000250: a166 ca3e 3040 d7bc f0d3 f93e 20a5 ca3e
00000260: f8bd 21be 95b6 0cbe 26f5 783e 7e3f fb3e
00000270: 8991 62bf be6f e1bd 94fc 35bf f755 c93e
00000280: fbfa 26be 34a2 213e c3d7 7a3d 0a30 b7bd
00000290: 9fa7 2dbe 1c78 bd3d f570 02bd 68ff ea3c
000002a0: 4021 a2bb fd36 073e fd5f b03c c074 ddbd
000002b0: 4942 ebbc c612 b43c 0622 a5bd 1a61 d1bd
000002c0: 6a9c c53d 3cd2 23bd 00f4 f8ba 5c4f 1c3d
000002d0: f47d 75bd 7ade f1bb 8243 aa3c 5b40 edbd
000002e0: 9880 d33d 3547 7e3d 0425 a0bd 65bb edbd
000002f0: 7702 9bbd 4e0f 30be ee69 8cbd 50d7 27bc
00000300: 2a16 8e3e ca60 a03e 66d4 b73e 77a5 b7be
00000310: 877f 2fbf 6083 823e e854 d4be 152e aabe
00000320: da0f 91be 1685 d93e ea06 32bd 7b36 683e
00000330: 06b8 a9bd c654 95be 542e 41be 86cf abbe
00000340: cdc0 babe 1f78 ac3d 023c c6bd e8cb 5f3e
00000350: cba4 ba3e 3675 383d b97e 053f d039 103f
00000360: 6aa2 a7bc 631d 993e 1cd6 d03e 34b0 c53e
00000370: d389 25bf 0f79 78be 3918 0ebf bcb1 ad3e
00000380: 0d23 fdbd f075 a83e a82a 9c3d 70b5 993d
00000390: 1621 1c3f 62e3 9e3e 8005 0d3f b760 0cbf
000003a0: 89d3 fcbe 4a4a d93d 2d08 96be d621 05be
000003b0: 9509 08bf bd3e 9bbd 1f53 243e c495 853e
000003c0: a3f3 ab3e 4edc 973d a870 1cbd d819 e83c
000003d0: dd1c bb3e 109b 56bf 9a63 7c3e 6b0e 4e3e
000003e0: d3f5 873d 86c9 fb3e 0f30 a63d 598f cf3d
000003f0: 2307 363f 69e0 f43d 02f7 8abd d520 b73a
0.42327 0.41660148 0.27988264 -0.06158675 -0.5257947 0.27376264 -0.38553697 -0.43235093
-0.32318285 0.3909056 0.07139542 0.339135 -0.010969495 -0.19174503 -0.04212217 -0.27875602
-0.26708072 0.094746664 0.05701464 0.102333345 0.219562 0.145294 0.5720178 0.52095324
-0.017678116 0.26806116 0.28600588 0.545233 -0.7250294 -0.31644592 -0.4779594 0.36483103
0.2630685 0.17971516 0.34179768 -0.1579926 -0.8168848 0.44476175 -0.6002554 -0.46740007
-0.35170653 0.23204373 0.13147457 0.35235938 -0.17941569 -0.20593923 -0.11426432 -0.24671324
-0.29569063 0.14931037 -0.01885445 0.22667588 0.34440482 -0.180489 0.6001358 0.58153915
-0.06834898 0.093422376 0.37644443 0.37709734 -0.6238282 -0.21922214 -0.4436851 0.6575138
0.01548284 0.49613005 0.17938825 0.51291865 0.5620615 0.3849992 0.72267383 -0.8790134
-0.8890558 0.13220696 -0.0665664 0.41349423 -0.9392262 -0.8888805 0.20418213 0.35773763
0.043544102 0.0784679 0.06933985 0.09014178 0.55651605 -0.9154834 0.13565242 0.27375603
-0.12759289 0.2403811 0.42855677 0.19336319 0.2466861 0.096239 -0.37214565 0.106446035
0.1868831 0.22099756 0.3885483 -0.2384331 -0.7007439 0.3682104 -0.47597954 -0.36943114
-0.34717554 0.47204268 0.13483034 0.28908905 -0.38521168 -0.4284544 0.022939801 -0.43893248
-0.26069963 0.046717487 0.028666748 0.042378627 0.13394907 -0.18471609 0.60015094 0.25309086
-0.14297502 -0.23720342 0.33080938 0.61957234 -0.86552274 -0.13648129 -0.8291635 0.41453913
0.27620545 0.20829748 0.14442268 -0.16478717 -0.5874531 0.42006508 -0.4500555 -0.62187386
-0.25863463 0.34368268 0.11799533 0.17537357 -0.2587352 -0.44989818 -0.15268326 -0.51106894
-0.4688769 0.028132565 0.04024101 -0.0015386617 0.39531425 -0.026275724 0.48794508 0.39579105
-0.15795124 -0.13741525 0.24312267 0.49071878 -0.8850332 -0.11007641 -0.7108853 0.39323398
-0.16306679 0.15784532 0.061240923 -0.089447096 -0.16958474 0.09251425 -0.031846005 0.02868624
-0.0049478114 0.1320457 0.021530146 -0.10813284 -0.02871813 0.021981608 -0.0806313 -0.10223599
0.09648974 -0.039995417 -0.0018993616 0.03816162 -0.05993457 -0.0073812576 0.020784143 -0.115845405
0.10327262 0.062079627 -0.0781956 -0.11608008 -0.075688295 -0.17193338 -0.06856142 -0.010244206
0.27751285 0.31323844 0.35904235 -0.35868427 -0.68553966 0.25490856 -0.41471028 -0.33238283
-0.28332406 0.4248435 -0.043463625 0.22677033 -0.08287053 -0.2916624 -0.18865329 -0.33556765
-0.3647522 0.08421349 -0.09679414 0.21855128 0.36453852 0.045033656 0.5214649 0.56338215
-0.020463187 0.29905233 0.40788352 0.38610995 -0.6466343 -0.2426493 -0.5550571 0.33924663
-0.12360201 0.3290248 0.076253235 0.075053096 0.60987985 0.31032854 0.5508652 -0.54835075
-0.4938014 0.10609873 -0.29303113 -0.13001189 -0.5313962 -0.07580326 0.16047333 0.26090825
0.33584318 0.07415067 -0.038193375 0.028332636 0.36545458 -0.83830357 0.2464737 0.20122688
0.06638684 0.49177188 0.08114635 0.10134763 0.7110464 0.11956865 -0.06785394 0.0013971577

fc2.bias f4 [50]
00000000: 3611 0e3f 035b 043f 2d50 c73d 595d 0b3f
00000010: ca4b 863e 84c5 f2bb 11c8 753e 1023 113e
00000020: 7237 843e 09b2 a83e 99f3 173e f83e 81bd
00000030: 7c46 ff3d f2b4 10bd 90c9 923d 276c 5c3e
00000040: 2ead 023f 57d7 e33e 17ab ce3e 3b96 393e
00000050: 5951 ac3e 643f ef3c 3047 74bc 7ca0 5c3e
00000060: daed 7c3d 94db a53e 2552 8d3e d913 543e
00000070: ea9d 9dbc fae1 053d 1635 043f b3b7 cb3c
00000080: 61e4 0f3f a6fe d73e 83fc 953e e892 13bd
00000090: bc24 9b3e 858a d2bc b598 d9bd 0b89 aa3a
000000a0: ad22 e1bd 6c9d c83d e3b1 853e 5ef7 e93e
000000b0: 4ce0 af3e 818c e93e 75b6 b7bd a8ed 063f
000000c0: ef73 d53d 763a 66bc
0.5549501 0.5170137 0.09732089 0.5443931 0.26229697 -0.0074087996 0.240021 0.14173532
0.2582355 0.3294833 0.14839019 -0.063108385 0.12464616 -0.035328813 0.07167351 0.21525632
0.510455 0.4450023 0.40364906 0.18123715 0.33655813 0.029205032 -0.014909551 0.21545595
0.06175027 0.32394087 0.27601734 0.20710696 -0.019240338 0.03268621 0.516435 0.024867868
0.56207854 0.4218647 0.29294214 -0.036028773 0.30301464 -0.025700817 -0.1062483 0.0013010813
-0.10992942 0.09795651 0.2611228 0.4569654 0.34350812 0.45615008 -0.08970348 0.52706385
0.10422503 -0.014052024

fc3.weight f4 [2, 50]
00000000: 062e 9a3e 80fb c23e cf3c 2bbd dd22 d63e
00000010: 06bd 133f c018 933c bbd4 de3e a90c 2cbe
00000020: ba3b 08bf 3659 d53e 6733 f43e 31b7 a0be
00000030: 56ec b6be 28c6 41bf 0276 5abe 2d6c 22bf
00000040: 6fc9 153f 43cb d03e f25f f03e 8dce 083f
00000050: a1fc c93e 8953 8fbe 04dd 603d 1e17 0dbf
00000060: ab06 ecbe 2f42 b43e 526c 823e 008d 19bf
00000070: c7cc a8bd a001 793d 67e9 3e3f e3d0 103f
00000080: 023c d93e 15a8 b23e 0dd8 963e 42e4 9dbd
00000090: 21ad 6abe d2f1 14bf d4cc a8bd 37b9 d6be
000000a0: a697 7fbe 74c7 26bf a882 203f 6d1d 083f
000000b0: 6ff7 e63e f3a5 bd3e 4695 cfbe 39e9 1f3f
000000c0: 197a a93e 89f4 23be addd c13e 397a c03e
000000d0: 37f7 fcbe 0c6a 053f f704 fb3e c92f 82bd
000000e0: acf6 e83e 493d d9be c0af 28bf c1d7 063f
000000f0: db68 e53e 0a28 aabe 7bf0 cdbe 8259 21bf
00000100: 1ad2 01bf 46ae 46bf afd5 213f e018 dc3e
00000110: 6294 f23e 9850 c73e 6d11 ed3e 4ed6 3b3e
00000120: 8034 a03b ef4d a8be a6e3 f83c cd0a 093f
00000130: 5891 fb3e 7bc2 f4be 6da6 bb3d 1464 90be
00000140: 1225 b53e 9c4a 0ebf 7b6c cf3e d54e 0b3f
00000150: 1242 cf3e 5011 fd3c 2f54 1cbf 02b9 73be
00000160: 6751 9dbe 848c 19bd 4f06 ad3e ad1b 2abf
00000170: aa7b 0a3f 0ef8 b33e 8ade f33e 1204 ee3e
00000180: 9e7c 19bd a045 083f 3f5f a63e 376e f5be
0.30113238 0.38082504 -0.04180604 0.41823474 0.577103 0.017956138 0.43521675 -0.16801704
-0.53216136 0.41669625 0.47695467 -0.31389764 -0.35727185 -0.7569299 -0.21334079 -0.63446313
0.5851049 0.40780076 0.469482 0.5344017 0.39450553 -0.2799342 0.054898277 -0.551134
-0.46098837 0.35206744 0.25473267 -0.59980774 -0.08242183 0.060792565 0.74574894 0.56568736
0.42428595 0.3489386 0.2946171 -0.07709552 -0.22917606 -0.5818149 -0.08242193 -0.41938183
-0.24960193 -0.6514809 0.62699366 0.531699 0.45110652 0.37040672 -0.40543574 0.62465245
0.33100966 -0.16011252 0.37864438 0.37593248 -0.4940736 0.5211494 0.49027225 -0.063567705
0.45500696 -0.4242957 -0.65893173 0.52672964 0.4480656 -0.33233672 -0.40222535 -0.63027203
-0.50711215 -0.7760967 0.6321668 0.42987728 0.47378832 0.38928676 0.46302357 0.1834347
0.004889071 -0.3287196 0.030381989 0.53532106 0.49134326 -0.47804627 0.091626026 -0.28201354
0.35379845 -0.55582595 0.40512452 0.54417163 0.40480095 0.030892044 -0.61065954 -0.23801044
-0.30726168 -0.03748752 0.33793876 -0.6644848 0.54094946 0.35150188 0.4763072 0.4648748
-0.03747236 0.5323124 0.32494542 -0.4793565

fc3.bias f4 [2]
00000000: 35e8 7f3e 818d 203e
0.24990924 0.1567898
